model.onnx (onnx, 82475 bytes, 5 tensors)

relu_fc_dropout_stack.1.weight f4 [16, 96]
000000 ba 40 43 be a4 38 60 bc 28 69 52 be ce 6b a6 bd
       -0.1906766 -0.013685379 -0.20547926 -0.08126031
000010 2e 6d 1b be 32 f9 91 bd f0 f0 1e bc e6 de 81 bd
       -0.15178367 -0.07127608 -0.009700999 -0.06341343
000020 ac 92 da bd 44 35 af bd 43 82 00 be ac a6 e0 bd
       -0.10672507 -0.085550815 -0.12549691 -0.1096929
000030 80 6c 61 3a 02 64 a9 bd 66 d8 59 bd 7d de d6 bd
       0.00085992366 -0.08271028 -0.05318489 -0.10491655
000040 4d 93 33 be a3 97 17 be ca ce 5d be 3f 6f 90 bd
       -0.1753666 -0.14803939 -0.21660915 -0.070524685
000050 ad 36 e9 bd 30 f6 18 be 6b 29 62 bd bd 47 3f bd
       -0.11387382 -0.14937663 -0.05521528 -0.046699274
000060 3a 3d 21 bd e9 36 ab bd fb ef f0 bd 7a 2d c0 3d
       -0.03936503 -0.08360083 -0.11764523 0.09383674
000070 a8 3d 03 3d 54 e3 5e bd 8d 8d ea bd 6a a8 99 bd
       0.03204122 -0.054416016 -0.1145278 -0.075028256
000080 a0 df 4d bc 22 cf af 3d a9 3f 43 be bc c4 91 3d
       -0.012565523 0.08584429 -0.19067253 0.07117602
000090 9e 84 d9 bc de 6d e5 bd ff fe 4b bd e7 95 88 bc
       -0.026552495 -0.11202596 -0.04980373 -0.016673042
0000a0 b5 f3 4c be eb ad 5e be df de f3 bd c0 bf cb 3d
       -0.20014842 -0.21746032 -0.11907744 0.09948683
0000b0 73 fe d3 bd b0 82 88 3b f3 5c 55 be 30 c0 5e be
       -0.10351267 0.00416597 -0.20836239 -0.21753001
0000c0 b4 97 83 3d 5a 4a b3 bd db 78 3f bd 18 4f 69 bd
       0.064254194 -0.08754416 -0.046746116 -0.056960195
0000d0 be c8 26 be 4a 43 0c be 41 54 bd bd bc 59 99 3d
       -0.16287515 -0.13697544 -0.09244586 0.074878186
0000e0 f7 16 c2 bd 8b 69 21 be a0 95 67 bb 00 ce 56 3a
       -0.094770364 -0.15762918 -0.0035336986 0.00081941485
0000f0 70 10 21 3d e5 22 93 bd f9 2a b1 bd da df 77 bd
       0.039322317 -0.0718439 -0.086507745 -0.060516216
000100 84 02 ef bd 00 55 f2 3b c8 e8 41 be e4 7f 6f bd
       -0.11670402 0.0073953867 -0.18936455 -0.058471575
000110 17 80 93 bd 07 cd 32 be 3c 6f 00 be fc cc ca 3d
       -0.072021656 -0.17461024 -0.12542433 0.09902379
000120 66 d2 47 bd e8 29 aa 3d 41 35 90 bc 43 52 3d be
       -0.048784636 0.08308774 -0.017603518 -0.18488412
000130 14 25 2d be 1c 26 b0 3d 80 8e bc bd 75 69 1a be
       -0.16908675 0.08601019 -0.09206867 -0.15079291
000140 ce 99 ab bd 20 b0 fd bb 70 1d f1 3c d1 37 0a bd
       -0.08378945 -0.007741943 0.029432982 -0.033744637
000150 04 7f 5c be 86 a8 f6 bc 23 35 52 be 75 a1 4f bd
       -0.21532828 -0.030109655 -0.20528083 -0.050691087
000160 39 13 d5 bd 7d 66 df bd 22 92 ac 3d 84 09 a4 3c
       -0.10404057 -0.1090822 0.0842631 0.020024069
000170 31 5e 7a bd 7d de 44 be 73 aa 46 be 50 cb 10 bd
       -0.061124984 -0.19225498 -0.19400959 -0.035350144
000180 c2 eb 02 bd 33 b3 fa 41 1b 97 2e 41 91 7d a0 bd
       -0.031963117 31.3375 10.911891 -0.0783645
000190 78 e9 07 be d5 b9 35 bd ee 93 81 bd 58 b9 6c 3d
       -0.13272655 -0.044366676 -0.063270435 0.057793945
0001a0 f2 26 22 40 89 b9 b8 40 2c 81 c2 c1 9e 64 20 bf
       2.533627 5.7726483 -24.313072 -0.6265353
0001b0 20 a3 33 3b 46 82 84 3d ca 91 32 c0 3d e7 ab bf
       0.0027410462 0.0647016 -2.7901483 -1.3429943
0001c0 6a 3f 78 3f e7 12 8b 40 f5 5d 72 bf 3c 1b 5f 3d
       0.9697176 4.3460574 -0.9467462 0.054469332
0001d0 bd de 9f c0 53 82 2f c1 45 d2 21 c0 38 f8 14 bd
       -4.9959397 -10.969317 -2.5284588 -0.036369532
0001e0 98 65 3d 41 22 53 95 40 7a 4c 60 c0 79 f3 62 be
       11.837303 4.666398 -3.5046678 -0.2216319
0001f0 a0 e1 58 3b 56 67 61 bf fa 24 cd c0 72 50 8e be
       0.0033093467 -0.88048303 -6.4107637 -0.2779575
000200 ab da 84 bd 18 c3 f5 bc d7 0d 1d 41 48 ba eb 3c
       -0.0648702 -0.030000255 9.815879 0.02877535
000210 ba ac 23 c0 e2 62 be 41 e0 ce dc bb 6b 50 56 be
       -2.5574174 23.798283 -0.0067385286 -0.20929115
000220 67 91 17 c1 2c e1 1a 3e e2 06 e9 c0 26 80 c3 3d
       -9.472999 0.15124959 -7.28209 0.09545927
000230 f0 47 90 40 78 e8 0a 3d 6f 48 24 40 79 cc a2 bf
       4.5087814 0.033913106 2.566921 -1.271865
000240 d2 a8 61 bd b2 44 82 c1 6b 89 75 bd e5 8e 71 bf
       -0.05509264 -16.283543 -0.059945505 -0.94358665
000250 3e 9a 4a 3f a1 1e 01 c0 4b ed c0 40 d3 a8 b4 bd
       0.79141605 -2.0174944 6.0289664 -0.08821263
000260 91 6a b3 c1 ca c0 23 bf 09 02 a6 bd 8c 36 53 3d
       -22.427034 -0.6396605 -0.08105857 0.05156569
000270 7e e8 94 bd f2 50 08 41 7b 02 01 c1 34 91 1b bd
       -0.07270907 8.519762 -8.063106 -0.037980273
000280 b8 31 2d 3e 7a 8a 7e bd 72 fd cc 40 18 21 54 bc
       0.16913497 -0.06214378 6.405938 -0.012947343
000290 17 a0 e2 40 16 9e 08 c2 79 5f 63 40 61 c3 89 c1
       7.082042 -34.15438 3.5527022 -17.2204
0002a0 86 ee 21 40 80 f3 04 3c 47 52 fc bf ed a9 89 c1
       2.5301833 0.008114696 -1.9712609 -17.207972
0002b0 44 2b 72 c1 e6 1c 91 c0 28 b2 60 3d f9 ba 21 c0
       -15.135563 -4.5347776 0.054857403 -2.527037
0002c0 42 e2 1d 41 94 3e 50 40 19 5d 86 c0 be ea 23 c0
       9.867739 3.2538195 -4.1988645 -2.5612025
0002d0 d6 fa 1e c2 14 75 ec 3d 6d 33 38 c0 10 76 aa 3c
       -39.744957 0.115457684 -2.8781388 0.02080825
0002e0 07 83 15 bf 57 44 0e 40 3e 28 ce 3d 00 fd da 3c
       -0.58403057 2.2229211 0.10066269 0.026731968
0002f0 6b 52 6c bd db 8f 1b 3e 14 c5 ae c1 a3 bf 45 41
       -0.057695787 0.15191595 -21.84623 12.359286
000300 4d 9f d0 bd 88 d0 fc 41 59 85 2d 41 9f 08 2e bd
       -0.10186634 31.601822 10.845056 -0.04248869
000310 6d 9e 7b be d8 41 d0 3d 71 42 76 bd 74 c9 91 bd
       -0.24572153 0.10168809 -0.060121957 -0.07118502
000320 31 dd 20 40 8e 8e b7 40 a0 a3 c2 c1 6f a3 00 bf
       2.5135005 5.7361517 -24.329895 -0.5024938
000330 94 cd b6 3c 02 14 99 bd 57 a9 3c c0 14 53 a6 bf
       0.022314824 -0.07474519 -2.9478357 -1.2994103
000340 ae 2c 83 3f 01 fa 8c 40 0f b0 8d bf a0 a2 04 bd
       1.024801 4.405518 -1.1069354 -0.032381654
000350 3c bf a3 c0 59 64 31 c1 15 95 1b c0 37 41 6e bd
       -5.117094 -11.086999 -2.4309742 -0.058167662
000360 ea 63 3f 41 ab f2 99 40 4c 00 6c c0 04 c7 ba bc
       11.961893 4.8108726 -3.6875181 -0.022799976
000370 a0 d7 38 3d 18 f1 6b bf 1d 52 cd c0 38 96 52 be
       0.04512751 -0.92164755 -6.4162736 -0.20565116
000380 9e 8b aa 3d 12 34 bd bd 7d c4 1f 41 d1 2d 48 bd
       0.08327411 -0.09238447 9.985471 -0.04887182
000390 e5 30 2e c0 1c 23 c0 41 70 44 99 bb ff c0 7a bc
       -2.7217343 24.017143 -0.004677348 -0.015304803
0003a0 99 ef 19 c1 06 14 73 3e a2 d1 e9 c0 d4 c3 4f bd
       -9.6209955 0.23738107 -7.30684 -0.050723866
0003b0 d4 eb 90 40 92 8f 21 bd 7e cb 24 40 46 df ab bf
       4.5287876 -0.03944356 2.5749202 -1.3427513
0003c0 5e 88 c2 3d 44 e6 82 c1 3a 71 7b bd 39 6b 71 bf
       0.09498666 -16.362434 -0.06138728 -0.94304234
0003d0 87 65 58 3f 1d ac 01 c0 88 9b c4 40 24 ec 5b 3d
       0.8452992 -2.02613 6.1439857 0.053691998
0003e0 92 4f b4 c1 db 95 3b bf 60 bf f1 bc e3 46 4c bd
       -22.538853 -0.73275536 -0.0295102 -0.04987229
0003f0 5a 79 c2 bd 73 f5 0a 41 6b 41 01 c1 f6 25 db bc
       -0.09495802 8.684924 -8.078471 -0.0267515

relu_fc_dropout_stack.1.bias f4 [16]
000000 56 21 2d bd f0 26 1e 3f a2 a9 19 3f 00 fe 63 39
       -0.04226812 0.61778164 0.60024464 0.0002174303
000010 14 68 2d bd ba 89 a4 bd ac 0d 9f bd 12 e2 5e bd
       -0.042335585 -0.08034082 -0.077662796 -0.054414816
000020 46 f0 af bd 20 8c 8f bd 21 91 7b bd 38 e8 ab bd
       -0.085907504 -0.070091486 -0.061417703 -0.083939016
000030 63 bd 19 3f a4 e1 d2 bc 6a 04 4f bd 04 0c cb bc
       0.60054606 -0.02574236 -0.05054132 -0.024786003

relu_fc_dropout_stack.3.weight f4 [8, 16]
000000 33 b0 0b bc 40 0f 20 bd 2d 13 d9 3c 24 42 76 be
       -0.008525896 -0.039077044 0.026498402 -0.24048668
000010 64 06 41 3e 92 fc 34 3e 06 2f 0b be 93 d5 01 3e
       0.18850094 0.17674473 -0.13592157 0.12679128
000020 d0 85 13 be 44 2e 59 3e 76 bb 3a be 90 5e 50 bd
       -0.14406514 0.21209055 -0.18235573 -0.05087143
000030 21 7b 73 be 72 87 4a 3e 00 eb 02 be 00 d0 d2 3b
       -0.23777439 0.19778231 -0.12784958 0.006433487
000040 db 86 ba 3d a3 cb 9d be 2e ac a4 be 68 c4 02 bd
       0.09107753 -0.30819425 -0.32162613 -0.03192559
000050 28 e2 d4 bd 78 af 62 bd d0 13 84 bd b0 b5 e4 bc
       -0.103946984 -0.05534312 -0.064490914 -0.027918667
000060 70 4e 03 3d 6e 3c 0e 3e f6 20 1f 3e 00 12 b7 bb
       0.032057226 0.1389024 0.15539917 -0.0055868626
000070 f9 4b bf 3d 3c a2 88 3d 01 1f 18 be 4c a2 3c be
       0.093406625 0.06671569 -0.14855577 -0.18421286
000080 41 32 4f 3b b5 7d 8f 40 22 11 92 40 94 d5 5e be
       0.0031615647 4.484095 4.5645914 -0.21761161
000090 00 96 48 bb 74 e6 d7 3d 90 96 35 3e 43 4d 4c bd
       -0.0030606985 0.10542002 0.17733216 -0.04987837
0000a0 50 8c 0d 3e 90 ed 30 3e bf 04 e2 3c 60 84 cf 3c
       0.13823056 0.17278123 0.027590154 0.025331676
0000b0 86 6c 98 40 d0 d3 22 be 0f 1e 26 bd 1c 31 b8 bd
       4.7632475 -0.15901113 -0.04055601 -0.08993742
0000c0 78 ce 42 3d 67 0b 8f 40 e4 11 94 40 26 9a 6f 3e
       0.047560185 4.470142 4.627184 0.23398647
0000d0 be 7a 15 3e ee 11 34 3e 50 47 9e 3c df e4 a6 bd
       0.14597604 0.17584965 0.019321114 -0.081491224
0000e0 00 65 81 bd d4 75 35 3e 02 d6 dc bd 00 c7 46 bb
       -0.06318092 0.17720729 -0.10783006 -0.0030331016
0000f0 c4 d9 94 40 8a 52 74 be cf 85 a7 bd 1c b6 fe bd
       4.6515827 -0.23859611 -0.08179819 -0.12437078
000100 84 f0 2b 3e 8b 3c 14 3e 1e 11 02 3e a0 a5 2e 3e
       0.16790968 0.1447622 0.12701842 0.17055368
000110 f0 f4 0f 3e e6 3d 5b 3e 34 04 b7 bd 00 f3 57 3d
       0.1405828 0.21410331 -0.089363486 0.052721977
000120 00 99 48 3b 78 9b b0 3d 00 d0 72 3b b6 45 27 3e
       0.0030608773 0.08623403 0.0037050247 0.16335186
000130 74 ca a8 be 14 e1 6e 3e 98 82 e5 3d 84 a9 e8 3d
       -0.3296696 0.23328048 0.112065494 0.113604575
000140 c0 8e 6e be dc e1 d7 bd 30 de 92 3c 2c 69 95 3d
       -0.23296642 -0.10541126 0.017928213 0.072954506
000150 de 17 1d 3e 4e 86 77 3e 8c 2f ca bd 2e 69 0c 3e
       0.15341136 0.24172327 -0.0987235 0.13711998
000160 10 77 af 3c 68 10 1b 3d a4 04 1f be c8 25 02 3e
       0.021419078 0.037857443 -0.15529114 0.12709725
000170 c4 37 db 3d 10 71 61 3d 28 97 8c bd cc 50 f5 3d
       0.10703996 0.055039465 -0.06864768 0.119783014
000180 2e f0 bc 3d e4 65 89 40 c7 ea 90 40 38 6f 66 3d
       0.09225498 4.293688 4.5286593 0.05625841
000190 b0 6a 7a bd c4 f4 64 3e f4 20 4f be a5 ba e1 3d
       -0.0611369 0.22358996 -0.20227414 0.11021928
0001a0 b6 14 35 be 42 de 2f 3e 40 0c b0 3d 28 28 30 3d
       -0.17683682 0.17174628 0.085960865 0.043007046
0001b0 e8 6b 95 40 32 7a 43 be 96 cd ca 3d 56 0c 06 be
       4.669422 -0.19089583 0.09902494 -0.13090643
0001c0 9f f9 92 3d 91 1a bc bd 34 4f 18 be bc cf d1 bd
       0.07176518 -0.09184755 -0.14873964 -0.102447
0001d0 70 11 e7 3d 80 ba f3 3c 16 c8 6c be 9d 93 14 3e
       0.11282623 0.029752016 -0.23123202 0.14509435
0001e0 b6 55 08 3e 38 59 71 3d c0 cf dd bd e0 f0 37 bc
       0.13313946 0.058922976 -0.10830641 -0.011226863
0001f0 df 81 8b be 02 37 39 be d7 8d 92 bd 78 21 51 be
       -0.2724752 -0.1808739 -0.0715596 -0.20422924

relu_fc_dropout_stack.3.bias f4 [8]
000000 e5 9e c7 bd b5 d9 d5 bc 95 9e f9 3e ae f0 ee 3e
       -0.097471036 -0.026104787 0.487538 0.46668
000010 f7 a1 cd bd 44 77 4a be 14 d7 25 3f b2 b7 48 bd
       -0.10040658 -0.19772059 0.6478131 -0.04900331

relu_fc_dropout_stack.6.weight f4 [1, 8]
000000 a3 a4 0e 3c 38 0d d6 bd 3a 56 8a 40 b1 01 8b 40
       0.008706245 -0.1045174 4.3230257 4.3439565
000010 c1 db 82 be 7c 5d 83 bd 9d 87 8c 40 da e3 e2 bd
       -0.25558284 -0.06414315 4.3915544 -0.110786155
